demo/model/cnn_relu_3_1_3.onnx (onnx, 1049 bytes, 3 tensors)

conv_layer1.0.weight f4 [1, 3, 3, 3]
0.05763139 0.12294965 -0.113045864 0.090913415 -0.17933917 -0.19064187 -0.1266116 -0.033052858
-0.07121514 0.043146625 -0.027566867 -0.121459804 -0.15745959 0.06821648 0.104914084 0.07560807
-0.068459384 -0.13778244 -0.16649684 -0.06473735 -0.035305355 -0.14071724 -0.14447251 -0.1048545
0.012295105 0.05546552 -0.091965936
00000000: e40e 6c3d 07cd fb3d 9784 e7bd d030 ba3d
00000010: b0a4 37be 9f37 43be 79a6 01be 6f62 07bd
00000020: 3ed9 91bd 84ba 303d e9d3 e1bc ebbf f8bd
00000030: 163d 21be 15b5 8b3d 32dd d63d 67d8 9a3d
00000040: 6f34 8cbd d716 0dbe 267e 2abe 0495 84bd
00000050: 599c 10bd 2e18 10be 9af0 13be f5bd d6bd
00000060: 6871 493c d02f 633d a358 bcbd

conv_layer2.0.weight f4 [3, 1, 3, 3]
-0.2379986 -0.25648543 0.14266388 -0.31104034 -0.010847887 -0.1786431 0.15178554 -0.308222
0.18360448 -0.115722775 0.20340161 -0.2447238 -0.09648423 -0.04226319 0.06201617 -0.081345916
0.015702209 0.30480015 0.07218067 -0.036907595 0.0517387 0.25935787 -0.26911485 -0.14855012
0.078620754 -0.061843157 -0.09560883
00000000: e8b5 73be 0f52 83be 7b16 123e ae40 9fbe
00000010: 56bb 31bc 38ee 36be ab6d 1b3e 46cf 9dbe
00000020: d002 3c3e 1000 edbd 8348 503e e098 7abe
00000030: 8699 c5bd 2b1c 2dbd ab04 7e3d b098 a6bd
00000040: eba1 803c c40e 9c3e 76d3 933d 6b2c 17bd
00000050: f6eb 533d 8eca 843e 6cc9 89be 861d 18be
00000060: eb03 a13d 404f 7dbd 90ce c3bd

conv_layer2.0.bias f4 [3]
0.09179803 0.045625888 -0.08456831
00000000: 9b00 bc3d 36e2 3a3d 2632 adbd
