demo/cnn_relu_3_1_3.onnx (onnx, 1049 bytes, 3 tensors)

conv_layer1.0.weight f4 [1, 3, 3, 3]
0	0x3dd66649	0.10468728
1	0x3e220149	0.15820803
2	0x3c422a65	0.011850928
3	0x3e1691d3	0.14704065
4	0x3d61615b	0.055024486
5	0xbe3482b3	-0.17627983
6	0xbe006ae5	-0.12540777
7	0x3d237f6b	0.039916437
8	0x3d144190	0.036195338
9	0x3e28132f	0.16413568
10	0x3d155698	0.036459535
11	0x3e159fa8	0.14611685
12	0x3cbda158	0.023148224
13	0x3de5f16e	0.1122769
14	0x3e385a92	0.180033
15	0xbe15f5b6	-0.14644513
16	0xbdcd9e62	-0.10039975
17	0xbe30c2ff	-0.17261885
18	0xbd79f082	-0.06102038
19	0x3a98a3d6	0.0011645507
20	0xbdea6656	-0.114453
21	0xbde61979	-0.11235327
22	0xbcab7026	-0.0209275
23	0xbcbb877e	-0.022891756
24	0xbd65abe2	-0.056072123
25	0xbe0ae3a3	-0.13563399
26	0x3e21b066	0.15789947

conv_layer2.0.weight f4 [3, 1, 3, 3]
0	0xbe5c915b	-0.21539824
1	0x3d7f47d6	0.062324367
2	0xbe5bb2b0	-0.21454883
3	0xbea3a9a0	-0.3196535
4	0xbcb12196	-0.02162246
5	0xbe33a600	-0.17543793
6	0x3e78a3d3	0.24281244
7	0xbd213e40	-0.039366007
8	0x3df9a120	0.12188935
9	0xbea2f1b4	-0.3182503
10	0xbe9ad18a	-0.3023799
11	0x3e84c0b6	0.25928277
12	0xbe9233df	-0.285552
13	0x3e68c1ae	0.22730133
14	0xbe632380	-0.22181511
15	0xbbdaaa56	-0.0066731377
16	0x3e84a31a	0.25905687
17	0xbdeec2d0	-0.11658251
18	0xbe94eee0	-0.29088497
19	0xbe71797b	-0.23581497
20	0xbe801c7a	-0.25021726
21	0x3e400640	0.18752384
22	0x3db36246	0.087589785
23	0x3e811b2b	0.2521604
24	0xbe181f38	-0.14855659
25	0xbdacbfc6	-0.084350154
26	0x3e17e3c0	0.14832973

conv_layer2.0.bias f4 [3]
0	0x3e324d33	0.17412262
1	0xbe0ce11b	-0.13757746
2	0xbe145a1b	-0.14487498
