demo/single_cnn_3_1_3.onnx (onnx, 924 bytes, 3 tensors)

conv_layer1.0.weight f4 [1, 3, 3, 3]
000000 3f ac 13 3e 6b 72 be bd ff e1 d6 bd a8 1a 88 3d
       0.14421175 -0.09299167 -0.10492324 0.06645709
000010 b4 3a c0 bd 26 bd a7 bc 6b 6f 41 be 2c 85 90 3d
       -0.09386197 -0.020475935 -0.18890159 0.070566505
000020 7d 08 1a be b5 28 c5 3d 47 7d 35 3e c0 e6 3a bc
       -0.150423 0.09626905 0.17723571 -0.011407554
000030 ee 47 73 3c 47 97 2f be b6 49 2c 3c 4c ee 32 bd
       0.014848692 -0.17147551 0.010515621 -0.04368429
000040 9d 67 f7 bc d3 ab 1b 3e da 2e 43 be 23 2d 44 be
       -0.030200774 0.15202264 -0.19060841 -0.19157843
000050 57 c2 91 bb e5 58 c9 bd 02 74 5f 3d c7 7e 3a bd
       -0.004448216 -0.098314084 0.054553993 -0.04553106
000060 49 c2 d0 bc ad 4d 7a 3d ee 44 e4 3d
       -0.025483267 0.061109234 0.1114596

conv_layer2.0.weight f4 [3, 1, 3, 3]
000000 07 b8 91 3e 2e 02 7f 3e 53 c1 12 be 0b e6 71 bd
       0.28460714 0.24903175 -0.1433156 -0.059057277
000010 a8 2f 6e 3e 9f 61 a3 3e 50 f7 d8 bd e3 05 2f 3e
       0.23260367 0.31910416 -0.10594046 0.1709209
000020 b8 b8 80 3e 2b e2 60 bd 3b c5 27 3e af 7f 97 3e
       0.2514093 -0.05490319 0.16383831 0.29589602
000030 53 73 7d be ce 37 5d be 86 5a 62 be 7b 92 79 3e
       -0.24751024 -0.21603319 -0.22104844 0.24372284
000040 a0 f2 80 3e b6 98 16 bd c0 d9 d4 bd e8 80 08 be
       0.25185108 -0.03676673 -0.10393095 -0.13330424
000050 f0 0b ee 3d ee b9 38 3e 4c 51 9e 3e 90 c3 f2 bd
       0.11623371 0.18039677 0.309214 -0.11853707
000060 90 4a 10 3e 2b 2e cf bd 9c 6f 8b 3e
       0.14090943 -0.10116228 0.2723359

conv_layer2.0.bias f4 [3]
000000 c8 05 82 be 86 0e f8 bd 93 fa 57 3e
       -0.25395036 -0.12112145 0.2109168
